model.tflite (tflite, 165312 bytes, 12 tensors)

sequential/dense/BiasAdd/ReadVariableOp f4 [128]
0	0xbc912a4d	-0.017720366
1	0xbb608975	-0.0034261618
2	0xbb9a5099	-0.004709315
3	0xbbb23af7	-0.005439158
4	0xbc0dcbce	-0.008654548
5	0xb8816f45	-6.171925e-05
6	0x3b36c749	0.002788978
7	0x3b85ae0d	0.0040795864
8	0xbc52ae7f	-0.012858986
9	0xbbcddbbe	-0.006282299
10	0x3c095628	0.008382358
11	0x3b55a090	0.0032596923
12	0x3ba58070	0.0050507113
13	0xbb2b2bd6	-0.0026118658
14	0xbc386df1	-0.011256681
15	0x3c83b46b	0.01607724
16	0xbc47362a	-0.01215891
17	0xbb913629	-0.004431505
18	0x3bce91b0	0.0063039884
19	0x3bfcc126	0.007713455
20	0x3c4db79e	0.012555985
21	0xba943ffa	-0.001131057
22	0x3c5fe706	0.01366592
23	0xbbc8234a	-0.0061077224
24	0x3b93ac04	0.00450659
25	0x3acfe17b	0.0015860045
26	0xbbc11014	-0.0058918092
27	0xbbaa6f31	-0.0052012433
28	0xbbbc545d	-0.0057473616
29	0x3bfc21c7	0.0076944563
30	0xbbc0b9e4	-0.005881535
31	0x3ca5e8ac	0.020252548
32	0xbac67f2f	-0.0015144105
33	0x3d01bc74	0.031673864
34	0x3beb3eeb	0.0071791313
35	0x3c896795	0.016773025
36	0xbc0cbc1a	-0.008589769
37	0x00000000	0.0
38	0x3a6949e2	0.0008899254
39	0x3b9d1c67	0.0047946456
40	0x3c1f9875	0.009740938
41	0xbc953c55	-0.018217245
42	0x00000000	0.0
43	0xbb10ce4e	-0.0022095623
44	0x3cc7cb01	0.024388792
45	0xbbababb5	-0.005238975
46	0x3ab7deda	0.0014028207
47	0x3c07507e	0.008258937
48	0xbbe19dfe	-0.006885289
49	0x3c953ecd	0.018218422
50	0x3be1b4e6	0.00688802
51	0x3c594bc7	0.013262696
52	0xbc693f7c	-0.014236327
53	0xbb84b09c	-0.004049374
54	0x3bba7823	0.005690591
55	0xbb075e5b	-0.0020655605
56	0xbc3ebcc9	-0.01164169
57	0x3c4257bb	0.011861737
58	0x3c12b412	0.008954065
59	0x3c8afa7b	0.016965142
60	0xbaf0426f	-0.0018330346
61	0xbc264cf0	-0.010150179
62	0x3b6f3259	0.0036498515
63	0xbbb7fdaf	-0.0056149582
64	0xbc708d23	-0.014682087
65	0x3b8b5a2b	0.004252692
66	0x3c86c2d3	0.016450321
67	0xbbd4da55	-0.006495754
68	0x3c3282c4	0.010895435
69	0x3ba61e6a	0.0050695436
70	0x3bfa4cee	0.0076385653
71	0xbc972ac3	-0.018453008
72	0xbb259097	-0.0025263184
73	0x3af1126a	0.0018392329
74	0x3c182b0d	0.009287608
75	0xbcc32b9e	-0.02382451
76	0xbb41ae6f	-0.0029553433
77	0xbb96caef	-0.0046018283
78	0xb84ecc57	-4.9304534e-05
79	0xbc2a5ec8	-0.010398574
80	0x3c9ea97c	0.019367926
81	0x3c97877b	0.01849722
82	0xbc674418	-0.014115356
83	0xbc91bdfb	-0.017790785
84	0x3c55f770	0.013059482
85	0x3ab491b4	0.0013776333
86	0xbb2e1c48	-0.002656715
87	0x3b78d539	0.0037968887
88	0x3c1a83f4	0.009430874
89	0xbaea02ce	-0.0017853619
90	0xbb83d16c	-0.004022768
91	0xbbd25b8b	-0.006419604
92	0x3b567025	0.0032720652
93	0x3c01321f	0.007885485
94	0x3c45cb37	0.012072376
95	0xbcb03407	-0.021509184
96	0xbca345c0	-0.01993072
97	0x3ccfd978	0.025372252
98	0xbc2a93e5	-0.010411237
99	0xb8a9868f	-8.0836115e-05
100	0xbaa3db88	-0.0012501338
101	0xbac045c6	-0.0014669232
102	0x3c4b33b4	0.012402464
103	0xbb64e955	-0.0034929116
104	0x3c2dbc21	0.010603935
105	0xbc7c9244	-0.015415732
106	0xbb1e64c5	-0.002416895
107	0xbb81d1ee	-0.003961793
108	0x3c62c905	0.013841872
109	0x3d05d412	0.03267295
110	0xbb66c607	-0.0035213248
111	0x3c51221b	0.012764479
112	0x3b939ba5	0.0045046383
113	0xbb009250	-0.001961846
114	0xbc0c5d68	-0.008567192
115	0xbaebdaf8	-0.0017994335
116	0xbc2f298e	-0.01069106
117	0x3c709c5e	0.014685718
118	0x3d058edc	0.032606944
119	0x3b9b827f	0.004745781
120	0x3c5c86c0	0.013459861
121	0xbb42b25a	-0.0029708357
122	0xba72e078	-0.0009265016
123	0xbbfa6704	-0.007641675
124	0xbc5dfcac	-0.013549011
125	0xbb94df3f	-0.0045432146
126	0x3cbc3e0c	0.022978805
127	0xba53a162	-0.0008073059

sequential/dense_2/BiasAdd/ReadVariableOp f4 [8]
0	0xbd6a3d7c	-0.057187542
1	0x3d00864d	0.03137808
2	0xbcc1fa75	-0.023678998
3	0x3cb56a46	0.022145402
4	0x3b28d3f3	0.0025761097
5	0x3cb26b95	0.021779815
6	0xb96fb002	-0.00022858384
7	0xbc822e09	-0.015891092

sequential/dense_1/BiasAdd/ReadVariableOp f4 [64]
0	0x3cf29ee4	0.02961678
1	0x3d197e35	0.037473876
2	0x3d136502	0.035985
3	0xbc06b236	-0.0082212
4	0xbb7dcdda	-0.0038727433
5	0x3c96d301	0.018411161
6	0x3ccea9f1	0.025227519
7	0xbcb32bd2	-0.021871481
8	0x3d23a384	0.039950863
9	0x3a7ef3fa	0.00097256864
10	0x3c9a0b4e	0.018804219
11	0x3c822f6a	0.01589175
12	0x3cb1ac0a	0.02168848
13	0x3c70ed0d	0.014704955
14	0xbcb2c9bb	-0.021824708
15	0xbcd9dca5	-0.02659447
16	0x3c6cedff	0.01446104
17	0x3ba4380f	0.0050115655
18	0x3cfb5dcc	0.030684374
19	0xbb37690a	-0.0027986192
20	0xbbb58452	-0.0055394555
21	0xbce2ea20	-0.02769953
22	0x3cc093f0	0.023508042
23	0x3b8bea7b	0.0042698956
24	0x3bcf3454	0.0063233767
25	0x3b0d963a	0.0021604435
26	0xbcab5602	-0.020915035
27	0x3d0cb485	0.034351844
28	0x3a117812	0.0005549203
29	0xbac5fd89	-0.0015105467
30	0x3bfaa60c	0.007649189
31	0x3cafee9f	0.021476088
32	0xbc462e10	-0.012095943
33	0xbc321c4e	-0.010871006
34	0x3cd62aeb	0.026143512
35	0xbc179a6e	-0.0092531275
36	0x3cfc0c66	0.03076763
37	0x3cdc915d	0.026924783
38	0x3a4dc6fa	0.0007849779
39	0xbb711da9	-0.003679136
40	0x3ba133c0	0.004919499
41	0x3a47a302	0.00076155376
42	0xb87cb227	-6.02474e-05
43	0xbb9d94a3	-0.0048089786
44	0x3c9946fd	0.018710608
45	0xbc5a713f	-0.013332664
46	0xba9ef22f	-0.001212662
47	0xbc3bfaa1	-0.011473329
48	0x3b3ec046	0.0029106303
49	0xbbf47135	-0.0074597844
50	0x3cc49ea8	0.024001434
51	0x3d4a5c81	0.049404625
52	0xbb69ae0c	-0.0035656719
53	0x39dcc58e	0.0004210886
54	0xbcabe7c8	-0.020984545
55	0x3c325d5f	0.010886519
56	0x3ca56147	0.020187987
57	0xbc441f14	-0.0119703
58	0xbb9d516d	-0.0048009665
59	0x3d0b33e4	0.033985034
60	0xbce6e205	-0.028183946
61	0xbc22ac4a	-0.009928772
62	0x3c1698bd	0.009191689
63	0xbc751ecd	-0.014960957

sequential/conv1d/BiasAdd/ReadVariableOp f4 [32]
0	0x3cfff768	0.031245902
1	0x3d1c9104	0.038224235
2	0x3d352577	0.044225182
3	0x3d21cb67	0.03950062
4	0x3d6a087a	0.05713699
5	0x3d3ac51b	0.04559813
6	0x3d219c66	0.039455794
7	0x3cfacda8	0.030615643
8	0x3c2f774f	0.010709598
9	0x3d10fd2e	0.0353977
10	0x3d78a439	0.06070349
11	0x3ce96e8a	0.028495092
12	0x3c980d8a	0.018561143
13	0x3cde02db	0.027100971
14	0x3d37159a	0.044698335
15	0x3cc84a13	0.024449384
16	0x3d2281d6	0.039674602
17	0x3d2e9f0b	0.042632144
18	0x3babe42d	0.0052457065
19	0x3d4a229c	0.049349412
20	0x3cc421e4	0.023941942
21	0x3c10f9b7	0.008848599
22	0x3cf8b0d1	0.03035775
23	0x3d1ca0e1	0.038239364
24	0x3c89a2ed	0.016801322
25	0x3c89fa50	0.016842991
26	0x3cc2fb3c	0.023801439
27	0x3bd5f69c	0.0065296423
28	0x3d8bdcd1	0.06829227
29	0x3cea5ec9	0.02860965
30	0x3d8e77b1	0.06956423
31	0xbc416d15	-0.011805792

sequential/conv1d_2/BiasAdd/ReadVariableOp f4 [64]
0	0x3cf5ac11	0.029989274
1	0x3c4ce55f	0.012505858
2	0xbbfc8cea	-0.007707228
3	0x3b9cb223	0.0047819777
4	0x3c5122c9	0.012764641
5	0xbbc1bc37	-0.0059123295
6	0x3cd00627	0.025393559
7	0x3c88ec7b	0.016714325
8	0x3ca1a2f4	0.019731022
9	0x3c001324	0.0078170635
10	0x3c351c1a	0.011054063
11	0x3c943684	0.018092401
12	0x3bd0c4ff	0.00637114
13	0xbbbd1e27	-0.0057714167
14	0x3b3f255c	0.0029166555
15	0xbc29b17a	-0.010357255
16	0x3a6d39b1	0.0009049429
17	0x3cd41507	0.025888933
18	0x3c21d7df	0.009878128
19	0x3ba1c6c0	0.004937023
20	0x3c7f2aa3	0.01557413
21	0x3c757d61	0.014983506
22	0xba3f8f19	-0.0007307395
23	0x3cfe136f	0.031015126
24	0x3c1cb040	0.009563506
25	0x3c9289df	0.017888008
26	0xbb1aa25c	-0.002359531
27	0xbb1ebfda	-0.002422324
28	0x3c26075a	0.010133589
29	0x3cac3dc9	0.021025555
30	0xbaccff8a	-0.0015640121
31	0x3ac27543	0.0014835972
32	0xbc42a6ed	-0.0118806185
33	0x3cc2b6cc	0.023768805
34	0x3c6f4360	0.014603466
35	0xbb0c36f4	-0.002139506
36	0x3c04fed0	0.008117393
37	0x3bb2d147	0.0054570767
38	0x3c68553e	0.01418048
39	0xbc93fe35	-0.018065551
40	0x3b408fb9	0.002938254
41	0x3bd44f64	0.0064791907
42	0x3ca0a38f	0.01960924
43	0x3bf34316	0.0074237688
44	0x3c9b736f	0.018975941
45	0xbb1ec110	-0.002422396
46	0x3c01dd8b	0.007926355
47	0x3ca6e06e	0.020370688
48	0xbc88f5bd	-0.01671874
49	0x3c18774c	0.009305786
50	0xbc0ec286	-0.00871337
51	0x3ba86a7e	0.005139648
52	0xbb4f54aa	-0.0031636157
53	0x3c144945	0.009050672
54	0xbceeda04	-0.029156692
55	0x3c7fccf8	0.015612833
56	0x3b8279d7	0.0039818096
57	0xbbbe029d	-0.0057986514
58	0x3d1892d4	0.0372494
59	0x3c47822e	0.012177033
60	0xbc04452b	-0.008073132
61	0x3c495e70	0.012290582
62	0x3bf3683b	0.0074281967
63	0x3c781c76	0.015143504

sequential/conv1d_1/BiasAdd/ReadVariableOp f4 [32]
0	0x39043e28	0.00012611656
1	0x3d2c49d9	0.042062614
2	0x3c877805	0.016536722
3	0x38cfabe5	9.902547e-05
4	0x3bd3bdde	0.006461843
5	0x3bae4299	0.0053179977
6	0x3c58c078	0.013229482
7	0xbc0c6b8f	-0.008570566
8	0x3885f18a	6.386924e-05
9	0x3c258580	0.01010263
10	0x3c2616a7	0.010137237
11	0x3ca9980f	0.02070239
12	0x3d4788f6	0.0487146
13	0xb9e54d37	-0.00043735813
14	0x3cb523ec	0.022111855
15	0xbbbe12bc	-0.005800573
16	0x3c216253	0.0098501025
17	0x3ceb1254	0.028695263
18	0x3d045b19	0.03231344
19	0x3cbd87d9	0.023136066
20	0x3cc230bc	0.023704879
21	0x3d609d8e	0.054837756
22	0x3cda5ee2	0.026656572
23	0x3c2309b8	0.009951048
24	0x3c92760e	0.017878558
25	0x3ce86dd7	0.028372688
26	0x3cc82895	0.024433414
27	0x3ab8f2e2	0.0014110471
28	0x3d157bd9	0.036495063
29	0x3a268081	0.0006351546
30	0x3c81d0af	0.015846578
31	0x3d5ce1a5	0.05392613

sequential/dense/MatMul f4 [128, 128]
0	0x3dd6f5bb	0.10496088
1	0x3dd67bec	0.10472855
2	0xbd9efa85	-0.077626266
3	0x3c8b10d7	0.016975803
4	0xbd3c09cf	-0.04590779
5	0xbdb65741	-0.08903361
6	0x3c04321e	0.0080685895
7	0x3d36eb74	0.04465814
8	0x3b823807	0.003973964
9	0xbdf68028	-0.120361626
10	0xbce18348	-0.02752842
11	0x3db46c36	0.08809702
12	0x3d1f8e2a	0.038953938
13	0x3d65476e	0.055976324
14	0xbd46de00	-0.04855156
15	0x3ddb09b0	0.10695207
16	0x3e15e6a5	0.14638765
17	0x3dd0e976	0.10200779
18	0xbd917f66	-0.071043774
19	0x3c32c026	0.01091007
20	0xbdcee889	-0.10102946
21	0x3dd0670f	0.10175907
22	0xbdaf6a54	-0.08565202
23	0x3e126e36	0.14299855
24	0xbb1adf89	-0.0023631772
25	0x3dc67196	0.096896335
26	0x3d305939	0.04305384
27	0x3de97a89	0.11400325
28	0xbe0e8db0	-0.13921237
29	0xbde9f938	-0.11424488
30	0xbdc0ed2b	-0.09420236
31	0x3df71786	0.120650336
32	0x3d9e219b	0.077212535
33	0x3c9b6642	0.018969659
34	0xbdf4536b	-0.11929973
35	0x3df7b62e	0.12095295
36	0x3e09e6df	0.13466977
37	0x3e077b17	0.13230549
38	0x3d302b19	0.04300985
39	0xbb5fec2b	-0.0034167867
40	0x3e0c04ce	0.13673708
41	0x3bb63143	0.0055600717
42	0xbd18c34f	-0.037295636
43	0x3d784a69	0.060617838
44	0xbd096aa3	-0.033548962
45	0x3dae4308	0.08508879
46	0x3a935aab	0.0011242231
47	0xba2aa22d	-0.00065091514
48	0x3d8f3e45	0.06994299
49	0xbdd0f56d	-0.10203061
50	0x3d72aca6	0.05924668
51	0x3d211a19	0.03933153
52	0xbe09e691	-0.1346686
53	0x3cf1d85c	0.029522114
54	0x3e07dfc0	0.13268948
55	0xbdd15fe0	-0.10223365
56	0x3df8ff5e	0.121580824
57	0x3e1303a8	0.14356863
58	0xbe02af1c	-0.12762111
59	0xbdeadbfb	-0.11467739
60	0x3e041f1c	0.12902492
61	0xbaa17c8b	-0.0012320442
62	0x3c6c22e0	0.014412612
63	0x3d68e019	0.05685434
64	0xbccebf3a	-0.025237668
65	0x3d1c8015	0.038208086
66	0xbde8a5dd	-0.11359761
67	0xbe15e0ed	-0.14636584
68	0x3cd233dc	0.025659494
69	0x3d279cce	0.040921025
70	0x3ae4a28c	0.0017443462
71	0xbd903d27	-0.07042914
72	0x3d1019d6	0.03518089
73	0xbac25013	-0.0014824889
74	0x3db427c8	0.0879665
75	0x3e1d2ea6	0.15349826
76	0xbdae9135	-0.0852379
77	0xbd1b22da	-0.037875034
78	0xbdbcce5e	-0.09219049
79	0xbe09fb4b	-0.13474767
80	0x3d9713c7	0.07376819
81	0xbe037b16	-0.12839922
82	0x3d21d934	0.03951378
83	0x3e166898	0.14688337
84	0xbd97a666	-0.07404785
85	0x3d8fab94	0.07015148
86	0x3e35da65	0.17759092
87	0xbc36c6d8	-0.0111558065
88	0xbd0be17f	-0.034150597
89	0x3de31c10	0.11089337
90	0xbe1882ec	-0.14893693
91	0x3d60101e	0.05470287
92	0xbde997ea	-0.114059284
93	0x3d0d4359	0.034488056
94	0x3df3d4cf	0.119058244
95	0x3d920322	0.07129504
96	0xbe0e4993	-0.13895254
97	0xbc909464	-0.017648883
98	0x3db9a2dc	0.09064266
99	0xbdb3b5c2	-0.08774902
100	0x3e38a881	0.18033029
101	0x3d0e4c53	0.034740757
102	0xbd116046	-0.035492204
103	0xbe109773	-0.14120273
104	0xbdaf09ad	-0.085467674
105	0xbd1a537f	-0.037677284
106	0xbd7c89b9	-0.06165478
107	0xbd9e8d1f	-0.077417605
108	0x3d18cd31	0.03730506
109	0xbd951098	-0.07278556
110	0xbce603b6	-0.028077941
111	0x3dae8589	0.085215636
112	0x3bd9c4ed	0.00664579
113	0xbc9c69df	-0.019093452
114	0x3dcbe768	0.099562466
115	0x3c995174	0.018715598
116	0xbd5abb82	-0.053401478
117	0x3cc2632b	0.023728928
118	0x3e0ae507	0.1356393
119	0xbd2f22f9	-0.042757962
120	0xbd6dbeb4	-0.058043197
121	0x3e1a9167	0.15094529
122	0x3c3615db	0.011113609
123	0x3d6d2590	0.05789715
124	0xbdcf144e	-0.10111295
125	0xbe132e34	-0.14373094
126	0x3d97a704	0.074049026
127	0xbe15833f	-0.14600848
128	0xbde3cea7	-0.111234
129	0xbde3b9b5	-0.11119405
130	0xbc0512f8	-0.008122198
131	0xbd48510e	-0.048905425
132	0x3dc8f1b2	0.09811725
133	0x3d5627ab	0.052283924
134	0x3d440474	0.04785581
135	0xbd5081df	-0.050905105
136	0xbd3e9242	-0.0465262
137	0x3d8b2663	0.06794431
138	0x3ddc3b70	0.10753524
139	0xbca7a3b8	-0.02046381
140	0xbe0524b7	-0.13002287
141	0x3e03bd19	0.12865104
142	0xbc1edc02	-0.009696009
143	0xbd28d922	-0.0412227
144	0x3c948890	0.018131524
145	0x3e10d37a	0.14143172
146	0xbe015169	-0.12628712
147	0x3d837d97	0.06420439
148	0x3d23c1b0	0.039979637
149	0x3dbcc449	0.09217126
150	0x3d3a91db	0.045549255
151	0x3dbdf2c8	0.092748225
152	0xbd837de8	-0.06420499
153	0x3d50939a	0.050922014
154	0x3da310d2	0.079621926
155	0xbdfbae82	-0.12289144
156	0xbd8c36d6	-0.068463966
157	0xbde66f78	-0.1125173
158	0xbe181f9c	-0.14855808
159	0x3de6a196	0.11261289
160	0xbd30bada	-0.043146946
161	0xbdcdd5ce	-0.10050546
162	0xbc0cbe00	-0.008590221
163	0xbafe7200	-0.0019412637
164	0x3e0ba404	0.13636786
165	0xbe101291	-0.14069583
166	0x3e026c4a	0.12736621
167	0x3dcbcbda	0.09950991
168	0xbd51bb8a	-0.05120424
169	0xbd73c314	-0.059512213
170	0xbb10b1c7	-0.002207862
171	0x3d8a3682	0.06748678
172	0xbdd8b7d7	-0.1058194
173	0xbd9fc5ff	-0.07801437
174	0x3e04c10b	0.12964265
175	0x3c597bde	0.013274161
176	0x3d2349ed	0.039865423
177	0x3dfa6c85	0.1222773
178	0xbdedbde2	-0.11608483
179	0xbe0315de	-0.1280131
180	0xbd16ee06	-0.03684809
181	0xbde996ca	-0.11405714
182	0x3d811c2d	0.06304202
183	0x3d96382d	0.073349334
184	0x3ced2ecf	0.028952984
185	0xbd92239a	-0.07135697
186	0xbdb5da19	-0.088794895
187	0x3d70a20a	0.058748282
188	0xbcea92ac	-0.028634392
189	0x3d94e829	0.072708435
190	0xbd2ca298	-0.04214725
191	0xbda3d5a3	-0.07999732
192	0xbd60f9af	-0.054925617
193	0xba91edf9	-0.0011133543
194	0xbd0bdb94	-0.034144953
195	0xbd484772	-0.04889626
196	0xbc1dcbba	-0.009631092
197	0x3dc3bcb6	0.09557478
198	0x3ccd7b63	0.02508325
199	0xbdf126dc	-0.1177499
200	0x3d7cd8db	0.061730247
201	0xbd04e6e9	-0.032446776
202	0xbd0f3d48	-0.03497055
203	0xbc83cd14	-0.016089
204	0xbd107e41	-0.035276655
205	0x3dda654c	0.10663852
206	0xbe119af7	-0.1421927
207	0x3dfb4cc6	0.12270503
208	0x3b6b1182	0.003586859
209	0x3c6299d5	0.013830622
210	0xbd5429f0	-0.051797807
211	0xbdb1e9e1	-0.08687187
212	0xbcb54e49	-0.022132056
213	0x3db813bb	0.08988138
214	0x3dbafd56	0.09130351
215	0xbd970469	-0.07373888
216	0xbe00954c	-0.12556952
217	0x3d1227c6	0.035682462
218	0x3d41226a	0.04715196
219	0xbdcb7f72	-0.09936418
220	0xbde34431	-0.11096991
221	0xbdbc8e2a	-0.09206803
222	0x3d1c304e	0.038132004
223	0xbdafe068	-0.08587724
224	0x3e0b3a49	0.13596453
225	0x3b45444d	0.0030100525
226	0xbcf971c9	-0.030449765
227	0x3d1da59c	0.038488016
228	0x3dea4083	0.11438086
229	0xbdb97acd	-0.090566255
230	0x3d3badb1	0.045819942
231	0x3dddf9fc	0.10838696
232	0xbd9bb17d	-0.076022126
233	0xbe166f37	-0.14690863
234	0xbe09c7b1	-0.13455082
235	0x3d59fa82	0.05321742
236	0x3d5d97a9	0.054099713
237	0xbda7009d	-0.08154414
238	0x3db10d86	0.086451575
239	0xbc4cd615	-0.012502213
240	0xbe108d47	-0.14116393
241	0xbe0db0eb	-0.1383702
242	0xbdd1da36	-0.102466986
243	0x3be6eef3	0.007047528
244	0xbe1b5598	-0.1516937
245	0x3d5307a9	0.051520977
246	0x3da02455	0.0781943
247	0xbe0a6424	-0.13514763
248	0x3e0c6384	0.13709837
249	0xbdbd2869	-0.09236223
250	0xbb9f2df3	-0.0048577725
251	0xbd3fb86e	-0.046806745
252	0xbde8f258	-0.113743484
253	0xbe1606a3	-0.14650969
254	0xbdd40f72	-0.103545085
255	0xbcfd7f6d	-0.03094455

sequential/dense_1/MatMul f4 [64, 128]
0	0xbd8760bd	-0.06610248
1	0xbdd4c284	-0.103886634
2	0x3c1726e4	0.009225581
3	0xba86c1c4	-0.0010281135
4	0x3e1a46c5	0.15066059
5	0x3deeaa26	0.11653547
6	0xbe1e2483	-0.15443616
7	0x3e002294	0.1251319
8	0x3db1789f	0.08665585
9	0x3dc83199	0.09775085
10	0x3e008297	0.12549816
11	0xbdace41c	-0.08441946
12	0x3cf2347b	0.02956604
13	0xbdad1a9a	-0.084523395
14	0xbe1c89d5	-0.15286954
15	0x3e26d111	0.1629069
16	0x3b262560	0.0025351867
17	0x3dcc5982	0.0997801
18	0x3e378e4d	0.17925377
19	0x3e28bb48	0.16477692
20	0x3e1cc1d1	0.1530831
21	0x3d016c66	0.031597517
22	0x3dde40f8	0.108522356
23	0xbdb66d11	-0.089075215
24	0xbc41669d	-0.01180425
25	0xbe0980c3	-0.13428025
26	0xbd12d04d	-0.035843182
27	0x3d37d800	0.044883728
28	0xbda3e662	-0.080029264
29	0xbe2054f2	-0.15657404
30	0xbddd3d09	-0.10802657
31	0xbddbfb05	-0.107412376
32	0xbd95eebc	-0.073209256
33	0x3daa0c22	0.083030954
34	0xbdb49375	-0.08817188
35	0x3cfd1995	0.030895988
36	0x3caa3954	0.02077929
37	0x3d149000	0.03627014
38	0x3e138733	0.14407043
39	0x3e1dc19b	0.15405886
40	0x3e192251	0.14954497
41	0xbd76ac2b	-0.060222786
42	0xbe2daf4b	-0.169614
43	0x3d5d33fb	0.05400465
44	0x3e2befc1	0.16790678
45	0x3ddb1a4d	0.10698376
46	0xbcf0b7f3	-0.029384589
47	0x3d46be36	0.048521243
48	0xbb0da733	-0.002161455
49	0x3da49218	0.08035678
50	0x3db03740	0.08604288
51	0x3d70040a	0.058597602
52	0xbe398516	-0.18117175
53	0xbdff1c5f	-0.12456583
54	0xbd4332a4	-0.047655717
55	0x3d2ab206	0.041673683
56	0xbdb02de2	-0.086025015
57	0x3d29dc7e	0.041470043
58	0x3dc98cff	0.09841346
59	0xbc49ff8a	-0.012328992
60	0xbe0451c3	-0.12921815
61	0x3df4331c	0.11923811
62	0x3d6f4b8e	0.058421664
63	0xbe30454b	-0.17213933
64	0xbb9d0ef6	-0.0047930432
65	0x3dd54e81	0.10415364
66	0xbdac42c9	-0.08411176
67	0x3e35e872	0.17764452
68	0x3de2789a	0.11058159
69	0x3d484637	0.048895087
70	0xbdc4bbcb	-0.09606131
71	0xbdd26562	-0.102732435
72	0xbe053b7e	-0.13010976
73	0xbdbf2365	-0.09332923
74	0x3d467bb9	0.048457835
75	0xbcbe16bb	-0.023204198
76	0x3e32b571	0.17452027
77	0xbdc3e03e	-0.09564255
78	0x3db7da7a	0.08977218
79	0xbdcfeef8	-0.101530015
80	0x3e0a8398	0.13526762
81	0x3d6d45c4	0.05792786
82	0x3bb25fb5	0.005443538
83	0x3d36c87a	0.044624783
84	0x3e3a5abc	0.18198675
85	0xbdcd0836	-0.10011332
86	0xbdf1bb6f	-0.11803328
87	0xbd8ce314	-0.06879249
88	0x3d44f352	0.04808361
89	0xbd96eb46	-0.073690936
90	0xbcb282cc	-0.021790884
91	0x3d99c8f8	0.07509035
92	0x3ca409f9	0.020024287
93	0xbe10b382	-0.14130977
94	0xbd208113	-0.039185595
95	0x3d86ca94	0.065816075
96	0xbe3f4877	-0.18679987
97	0x3e4fa65a	0.20278302
98	0xbda5955a	-0.08085127
99	0xbd75be2d	-0.05999582
100	0x3df63724	0.12022236
101	0xbdc361f7	-0.0954017
102	0x3e1a0da2	0.15044263
103	0x3e3c11a2	0.18366101
104	0x3d2c4569	0.042058382
105	0x3ca1257b	0.019671192
106	0xbe1395d4	-0.14412624
107	0xbe2c1467	-0.16804658
108	0xbca4cc78	-0.02011703
109	0x3d73cab0	0.05951947
110	0xbd072540	-0.03299451
111	0x3e1de0ca	0.15417781
112	0x3d64b59f	0.05583727
113	0xbc350c67	-0.01105032
114	0x3d955a91	0.07292665
115	0x3d156058	0.036468834
116	0x3d9aa661	0.075512655
117	0x3e4102c7	0.18848716
118	0x3db55230	0.08853567
119	0xbdb741a2	-0.08948065
120	0x3d99e977	0.07515233
121	0xbe52bb2f	-0.20579217
122	0x3d0549c4	0.03254105
123	0xbd2de5c6	-0.042455457
124	0x3c82eabf	0.015981076
125	0x3d4fd504	0.050740257
126	0x3d36c09c	0.04461728
127	0xbe2589d9	-0.16165866
128	0x3d06bf88	0.032897502
129	0xbe0354e1	-0.12825347
130	0x3c3013b5	0.010746886
131	0xbc5d8b70	-0.013522014
132	0xbda5e695	-0.08100621
133	0xbdbb6776	-0.09150593
134	0xbe164f65	-0.14678724
135	0x3dd3f45c	0.10349342
136	0xbdc98aee	-0.09840952
137	0xbdd75899	-0.105149455
138	0x3e300a37	0.17191397
139	0x3ccf46f6	0.025302391
140	0xbdbf2d0c	-0.09334764
141	0x3e448c5a	0.19194165
142	0xbdea00f4	-0.11425963
143	0xbb0b2650	-0.0021232553
144	0xbd3cbe01	-0.04607964
145	0xbc3efe48	-0.011657305
146	0x3dbce418	0.09223193
147	0x3d11df20	0.03561318
148	0x3d795c3d	0.06087898
149	0x3dc36e6d	0.095425464
150	0xbd95415e	-0.072878584
151	0x3e0764d7	0.13222061
152	0x3d3dfac5	0.04638173
153	0x3d510c1d	0.051036943
154	0x3c416aaa	0.011805216
155	0x3e1ca0cb	0.15295713
156	0xbe20223d	-0.15638061
157	0x3e4191a1	0.1890321
158	0xbdfbda62	-0.122975126
159	0xbc4be493	-0.012444633
160	0xbd910257	-0.070805244
161	0x3da24906	0.07924084
162	0xbca594db	-0.020212581
163	0x3e39522c	0.18097752
164	0xbd42843f	-0.0474894
165	0x3d5a08e4	0.053231135
166	0x3dab4f58	0.08364743
167	0xbdabe24b	-0.08392771
168	0xbdb0a6d0	-0.08625567
169	0xbd9ec33f	-0.07752084
170	0xbe25edac	-0.16203946
171	0x3e00698c	0.12540263
172	0x3d663681	0.056204323
173	0xbddb43e9	-0.10706312
174	0x3cdccb83	0.02695251
175	0xbe1b7485	-0.15181167
176	0x3e4fc521	0.20290042
177	0x3e60db54	0.21958667
178	0x3dbae282	0.09125234
179	0x3d82941d	0.063759066
180	0x3db4be57	0.08825367
181	0xbdff6fbd	-0.12472484
182	0xbe15ad48	-0.14616883
183	0x3d585756	0.052817665
184	0xbd78c885	-0.060738105
185	0x3c8221fd	0.015885348
186	0x3cb799d6	0.022412222
187	0x3e364022	0.17797902
188	0x3dd5894a	0.104265764
189	0xbde8b29b	-0.11362191
190	0xbe16e2dc	-0.14734977
191	0x3dfa836e	0.122320995
192	0xbd5bc1d4	-0.053651646
193	0xbe038d58	-0.12846887
194	0xbdac49a3	-0.084124826
195	0xbe0c613d	-0.13708968
196	0x3de9acca	0.1140991
197	0xbdb3464f	-0.08753645
198	0x3e2ac659	0.16677226
199	0xbccf578d	-0.025310302
200	0xbd6baec8	-0.05753973
201	0x3e3971f2	0.18109873
202	0xbcf9139a	-0.030404855
203	0xbd7e33f4	-0.062061265
204	0xbe189047	-0.14898787
205	0xbd99bc2e	-0.075065956
206	0xbd714030	-0.058899105
207	0x3cc61309	0.024178999
208	0x3e49b33b	0.19697277
209	0x3dd7003f	0.10498094
210	0xbe3db142	-0.1852465
211	0xbdc1ee0d	-0.09469233
212	0xbda3c7c5	-0.079970874
213	0x3e07ae1d	0.13250013
214	0x3e101810	0.14071679
215	0xbe18f5ad	-0.14937468
216	0xbc362a98	-0.011118554
217	0x3ce74a2c	0.02823361
218	0x3e47a690	0.19497132
219	0xbd473d9e	-0.048642747
220	0xbca18f28	-0.019721583
221	0x3df9faf2	0.12206067
222	0xbe289d16	-0.16466174
223	0xbe1556c0	-0.14583874
224	0xbe1ffcfe	-0.15623853
225	0x3e6f510c	0.2337076
226	0xbd77098c	-0.06031184
227	0x3d3d8bc7	0.04627588
228	0xbcecb572	-0.028895114
229	0x3d35a3ea	0.044345774
230	0x3e554896	0.2082847
231	0xbd962342	-0.07330944
232	0x3e2361a7	0.1595522
233	0xbdaf5901	-0.08561898
234	0xbd87b527	-0.06626349
235	0x3e2c3167	0.1681572
236	0xbd7b9c27	-0.061428215
237	0x3df9c87f	0.12196445
238	0xbdb3d4b0	-0.08780801
239	0xbdd8130a	-0.105505064
240	0xbe08c76b	-0.13357322
241	0xbda04870	-0.07826316
242	0xbde45710	-0.11149418
243	0x3daf3622	0.08555247
244	0x3b8185e9	0.003952731
245	0xbd94cb47	-0.072653346
246	0x3d7bb6ff	0.061453816
247	0xbd9ab723	-0.07554462
248	0x3dda3921	0.10655428
249	0xbe12f95e	-0.14352939
250	0xbe0a8078	-0.1352557
251	0x3d130432	0.035892673
252	0xbab7a41b	-0.0014010699
253	0xbe571627	-0.21004544
254	0x3da3ed3b	0.080042325
255	0xbe32f3ca	-0.1747581

sequential/dense_2/MatMul f4 [8, 64]
0	0x3e55fff0	0.20898414
1	0xbe8eb700	-0.27873993
2	0xbea9c618	-0.33158946
3	0xbd5617e7	-0.05226889
4	0x3e165d96	0.14684138
5	0x3e37f060	0.1796279
6	0xbe77f846	-0.24215803
7	0x3e31872d	0.17336722
8	0x3dcda495	0.10041157
9	0x3e4a4076	0.19751152
10	0xbe76e82d	-0.24112006
11	0xbdc0042a	-0.09375794
12	0x3c3983b6	0.011322906
13	0xbe5f0abd	-0.2178144
14	0x3e932965	0.2874252
15	0x3e361c8d	0.17784329
16	0xbde62b24	-0.11238697
17	0xbe8edd5d	-0.27903262
18	0xbe88815f	-0.26661202
19	0xbd98cf8e	-0.07461463
20	0xbe822d2d	-0.2542509
21	0x3c373b4e	0.011183573
22	0xbd6bced5	-0.057570297
23	0xbc224f82	-0.009906651
24	0x3d1dedfc	0.038557038
25	0xbdb4904b	-0.08816584
26	0x3e4723c6	0.1944724
27	0xbe9d2f20	-0.30700016
28	0x3e8c3df6	0.27391022
29	0x3e2620e0	0.16223478
30	0x3e804b4a	0.2505744
31	0xbe99b9dc	-0.30024612
32	0x3e3ec276	0.18628868
33	0x3df48a7c	0.11940476
34	0x3d06a01b	0.032867532
35	0x3d430efb	0.04762171
36	0xbe8517d2	-0.25994736
37	0xbe789b54	-0.24278003
38	0xbe39897f	-0.18118857
39	0x3e837fa0	0.25683308
40	0x3d318253	0.043337177
41	0x3e7d5da3	0.24742751
42	0xbd570418	-0.05249414
43	0xbd93ee3a	-0.072231725
44	0x3e33b965	0.17551191
45	0x3e08ac87	0.13347064
46	0x3e3717e3	0.17880206
47	0x3d55c475	0.05218931
48	0xbe00208c	-0.12512416
49	0x3b4cd3f6	0.0031254268
50	0xbe4200bf	-0.18945597
51	0xbda4a692	-0.08039583
52	0xbdfb0b18	-0.12257975
53	0x3e8a26f3	0.2698284
54	0x3e951c73	0.29123268
55	0xbcc692ce	-0.024239924
56	0x3e06718c	0.13129252
57	0xbd9eee41	-0.07760287
58	0x3d9e07e6	0.0771635
59	0x3e42f348	0.19038117
60	0x3c9608a4	0.018314667
61	0x3e57a3a5	0.21058519
62	0xbe8ab96f	-0.270946
63	0x3e816bfe	0.25277704
64	0x3e9f6a68	0.3113587
65	0x3e8195d9	0.25309637
66	0xbb929f4b	-0.0044745556
67	0xbe8ea5b7	-0.27860805
68	0x3ea693a5	0.3253452
69	0x3e98c2fd	0.29836264
70	0x3e0dcbca	0.1384727
71	0xbcfcee44	-0.030875333
72	0x3b3a60d3	0.002843906
73	0x3e25caac	0.16190594
74	0x3e18e204	0.14929968
75	0x3e4acbfb	0.19804375
76	0xbd30784d	-0.043083478
77	0xbdd4d474	-0.10392085
78	0x3d948145	0.07251219
79	0xbe637364	-0.22211987
80	0xbe26863a	-0.16262141
81	0xbe26bf43	-0.16283898
82	0xbcf4e79b	-0.029895594
83	0xbdf0129e	-0.11722301
84	0xbd0132fe	-0.03154277
85	0xbdf9f4f0	-0.12204921
86	0x3c590023	0.0132446615
87	0xbdef50b8	-0.11685318
88	0xbe43337d	-0.1906261
89	0xbe511a5f	-0.20420216
90	0x3e691453	0.2276166
91	0x3e138e6f	0.14409803
92	0x3ba7eedb	0.0051249093
93	0xbe949ddc	-0.29026687
94	0xbd549e14	-0.051908568
95	0xbd1bc6d6	-0.03803142
96	0x3e8ceeff	0.2752609
97	0x3e15b236	0.14618763
98	0xbc8306cb	-0.01599445
99	0xbe7a7a2f	-0.24460672
100	0xbe9646a2	-0.29350764
101	0xbd00821a	-0.031374075
102	0xbe183434	-0.14863664
103	0xba999aed	-0.0011719145
104	0x3e2576ab	0.1615855
105	0xbe30fe25	-0.17284448
106	0xbdc2c384	-0.09509948
107	0xbdba6163	-0.09100606
108	0x3e0abea2	0.13549283
109	0xbe85d962	-0.26142412
110	0x3e658eb9	0.22417726
111	0xbd6deedc	-0.058089122
112	0xbe202c3c	-0.15641874
113	0x3de015c1	0.10941649
114	0xbe187183	-0.14887051
115	0x3e197334	0.14985353
116	0x3e7a17c3	0.24423127
117	0x3d3c72ee	0.046008043
118	0xbd23a94a	-0.03995637
119	0xbe81cc01	-0.25350955
120	0x3e788171	0.24268128
121	0xbe15c5bb	-0.1462621
122	0x3dccad5b	0.099940024
123	0xbe604f0b	-0.21905152
124	0x3e6ed628	0.23323882
125	0xbe843329	-0.25820282
126	0x3dc4bbec	0.09606156
127	0x3e56b0fd	0.20965953
128	0x3d7bc6eb	0.061469
129	0xbda8a14a	-0.082338884
130	0x3e0a239c	0.13490146
131	0x3e96d556	0.29459637
132	0xbdfbcd1d	-0.12294982
133	0xbe4d1cb1	-0.20030476
134	0xbe841771	-0.25799134
135	0xbd86752f	-0.0656532
136	0x3ddc2810	0.10749829
137	0x3e8aaf20	0.27086735
138	0x3d73c932	0.059518047
139	0x3e1f0804	0.15530401
140	0xbe782c5e	-0.24235675
141	0xbdba5e40	-0.09100008
142	0xbe86c6d7	-0.26323578
143	0xbdcb7e6f	-0.09936225
144	0xbcd46215	-0.025925675
145	0xbdc79675	-0.09745494
146	0x3e77f003	0.24212651
147	0x3e070bbb	0.13188069
148	0x3e5bf960	0.21481848
149	0x3d1c92bb	0.03822587
150	0x3ce43250	0.027856022
151	0xbd44c2e7	-0.048037436
152	0xbe865939	-0.26239946
153	0x3df9725e	0.12180017
154	0x3e5af643	0.21383004
155	0x3e6655af	0.22493623
156	0xbe9b25e0	-0.30302334
157	0x3e5c1c36	0.21495137
158	0xbe85a0ca	-0.26099235
159	0xbea72dec	-0.32652223
160	0x3dcecb85	0.10097412
161	0xbd45a371	-0.048251573
162	0xbea87125	-0.32898822
163	0x3e61c9f4	0.22049695
164	0x3e1ef2f4	0.15522367
165	0x3e75ec0a	0.24015823
166	0x3d62a4e3	0.05533303
167	0xbea44dc7	-0.3209059
168	0x3d0e9768	0.03481236
169	0xbdcc266d	-0.09968267
170	0x3e0ca69a	0.13735428
171	0x3e5fc47c	0.21852297
172	0xbe410b37	-0.18851934
173	0x3e728a9c	0.23685688
174	0x3e782242	0.24231818
175	0x3e482c10	0.19548059
176	0xbe8da290	-0.27663088
177	0xbe8e6953	-0.2781473
178	0x3d626c4e	0.05527907
179	0xbd08e5c1	-0.033422235
180	0x3b4e7126	0.0031500547
181	0xbe199b14	-0.15000564
182	0xbc9c8d4e	-0.019110348
183	0x3e794c50	0.24345517
184	0xbe20af3c	-0.15691847
185	0x3e39332e	0.1808593
186	0x3dc4e1cc	0.0961338
187	0xbd647ac2	-0.055781133
188	0x3e03a3dc	0.12855476
189	0x3e456282	0.19275859
190	0xbd963eb0	-0.073361754
191	0x3e22f051	0.15911986
192	0x3e16c300	0.14722824
193	0x3e023b35	0.12717898
194	0xbe518c7b	-0.20463745
195	0xbe1c0f96	-0.1524032
196	0xbe90e84d	-0.2830223
197	0x3e495474	0.19661123
198	0x3e7da4e9	0.2476994
199	0xbdedf0b5	-0.11618177
200	0xbe084972	-0.13309267
201	0x3e06be88	0.1315862
202	0xbdd12827	-0.102127366
203	0x3da5f6d2	0.08103718
204	0x3dfc0824	0.1230624
205	0x3dcd0cd6	0.10012214
206	0xbc88081f	-0.016605435
207	0xbe370890	-0.1787436
208	0x3dc989f2	0.09840764
209	0x3e23ffb7	0.16015516
210	0x3e5bef07	0.214779
211	0xbc8b2a2f	-0.016987888
212	0xbd1e999f	-0.038720723
213	0x3cf00871	0.0293009
214	0xbde0e461	-0.1098106
215	0xbe6ee0fe	-0.23328015
216	0xbe73c731	-0.23806454
217	0xbe80ae0b	-0.25132784
218	0xbe92367a	-0.28557187
219	0xbea185a7	-0.3154728
220	0xbd13cdd0	-0.03608495
221	0xbe13329e	-0.14374778
222	0x3e128b6e	0.14311
223	0x3e80ae78	0.2513311
224	0xbe3605f3	-0.17775707
225	0xbe934b4f	-0.28768393
226	0xbb6e050a	-0.0036318921
227	0xbe8ffe20	-0.2812357
228	0x3cefce4f	0.02927318
229	0x3e8a3c52	0.26999146
230	0xbe215650	-0.15755582
231	0x3e73143f	0.23738192
232	0x3d28e3ed	0.041232992
233	0xbe13c799	-0.14431609
234	0x3ddfbab8	0.10924286
235	0xbe898d46	-0.26865596
236	0xbe886eed	-0.2664713
237	0xbe54f80a	-0.20797744
238	0xbe6393cd	-0.2222435
239	0xbd3763ad	-0.044772793
240	0xbe21a076	-0.15783867
241	0x3e18f7f6	0.1493834
242	0x3e3eb397	0.18623196
243	0xbea3f2a1	-0.3202105
244	0x3e66edbe	0.22551629
245	0x3e97225a	0.29518396
246	0xbd16f3eb	-0.036853712
247	0x3e874665	0.26420894
248	0xbdc4cfe1	-0.09609962
249	0xbdfd10ea	-0.12356742
250	0xbd813e74	-0.0631074
251	0x3e409a14	0.18808776
252	0xbe1b7b98	-0.15183866
253	0x3e93e16b	0.28882918
254	0x3dd59a45	0.10429815
255	0xbe1e6fae	-0.1547229

sequential/conv1d/Conv1D f4 [32, 1, 3, 51]
0	0x3d2799a7	0.04091802
1	0xbda8e43b	-0.082466565
2	0xbcdcdef0	-0.026961774
3	0xbd9787ea	-0.073989704
4	0xbdcef7e4	-0.10105875
5	0x3cd8ef30	0.026481241
6	0x3d7bd82d	0.06148546
7	0x3e071539	0.1319169
8	0xbda706ca	-0.08155592
9	0xbdce99b0	-0.10087907
10	0xbcbc7b6a	-0.023008067
11	0xbe104e72	-0.14092425
12	0xbe1dffed	-0.15429659
13	0x3d3554d3	0.044270348
14	0xbe0998eb	-0.1343724
15	0x3ddee19a	0.10882874
16	0xbe0664cc	-0.13124388
17	0xbdc40239	-0.095707364
18	0xbd054840	-0.032539606
19	0x3ddf29d0	0.10896647
20	0xbd4ddb34	-0.050257877
21	0x3df12436	0.11774485
22	0x3cb27863	0.02178592
23	0x3d779017	0.06044015
24	0x3d4879c4	0.04894425
25	0x3df24739	0.11829991
26	0x3e122fe9	0.14276089
27	0xbe21dca6	-0.15806827
28	0x3cfc45fa	0.030795086
29	0xbdf97522	-0.121805444
30	0x3c904032	0.017608736
31	0xbda317ed	-0.07963548
32	0x3cab5a89	0.020917194
33	0x3d835a95	0.064137615
34	0x3dd3d6e4	0.103437215
35	0xbdab23f5	-0.08356468
36	0xbcc32a2c	-0.02382382
37	0x3e14196c	0.14462823
38	0xbde4bb8c	-0.11168584
39	0xbafc01ed	-0.0019226648
40	0xbdb9881f	-0.09059166
41	0xbd8ab5c5	-0.06772951
42	0x3de45e65	0.11150817
43	0x3e04ad2c	0.12956685
44	0x3b6dc2db	0.0036279473
45	0x3dda3042	0.10653736
46	0x3c6df372	0.014523374
47	0x3b148568	0.0022662524
48	0xbcfd6eb6	-0.03093658
49	0xbd5800ce	-0.052735142
50	0x3ddc9dda	0.10772295
51	0x3c95a5d8	0.018267557
52	0x3dfcb87f	0.12339877
53	0xbdb1b341	-0.08676768
54	0xbd9b100b	-0.07571419
55	0x3ccd4aae	0.025060024
56	0xbd9b1b8e	-0.07573615
57	0xbd44d6f1	-0.048056547
58	0x3d842a4f	0.06453382
59	0xbcfdf7f6	-0.031002026
60	0x3dae146e	0.084999904
61	0x3df182b7	0.1179251
62	0xbdb7300c	-0.08944711
63	0xbda15e01	-0.07879258
64	0x3d310733	0.043219756
65	0xbc8acfed	-0.01694485
66	0xbcf17f92	-0.029479776
67	0x3d0d8037	0.034546103
68	0x3d805bf7	0.06267541
69	0xbba64fe3	-0.005075441
70	0xbcbd4c67	-0.02310772
71	0xbda12695	-0.07868687
72	0x3d79054a	0.06079606
73	0x3dcc4f09	0.09976012
74	0xbc2bbac3	-0.010481539
75	0x3e13f4ce	0.14448854
76	0x3e15c114	0.14624435
77	0xbd9aca93	-0.07558169
78	0x3da4340a	0.08017738
79	0xbda8cc3f	-0.08242082
80	0xbdc9c64d	-0.09852276
81	0x3d182e02	0.03715325
82	0xbd824ede	-0.06362699
83	0x3dacd6f1	0.08439434
84	0x3d59269d	0.05301534
85	0xbde56d64	-0.11202505
86	0x3d5931df	0.053026076
87	0x3d6ac1f8	0.05731389
88	0x3db6aff3	0.089202784
89	0x3c2fd2d9	0.010731422
90	0xbdce056e	-0.100596294
91	0x3e0b02e7	0.13575326
92	0x3e00de98	0.12584913
93	0xbd1655f3	-0.03670306
94	0xbd0e0eb6	-0.034682
95	0xbdbca15b	-0.092104636
96	0xbb857a64	-0.004073428
97	0x3e0a34db	0.13496725
98	0x3db99f54	0.090635926
99	0x3dd87ca9	0.10570652
100	0x3d892f14	0.066984326
101	0x3d837f02	0.06420709
102	0xbde9a971	-0.114092715
103	0x3c51aaa8	0.012797035
104	0xbe33a0fd	-0.17541881
105	0x3da9b3e6	0.08286266
106	0x3d9e18b4	0.077195555
107	0xbdf8d7be	-0.121505246
108	0xbe176c65	-0.14787443
109	0x3d38db27	0.045130875
110	0xbdf84e37	-0.12124293
111	0xbd039e0e	-0.032133155
112	0xbce522b9	-0.027970659
113	0xbe0d74be	-0.13814065
114	0xbdaa1948	-0.08305603
115	0xbe33c9ba	-0.17557421
116	0xbe117134	-0.1420334
117	0xbdaa5dfb	-0.083187066
118	0x3d9d830a	0.07691009
119	0x3d81b05d	0.06332467
120	0x3d19e8be	0.037575476
121	0x3de65ce3	0.112481855
122	0x3dbbc3a1	0.09168173
123	0xbd92cf43	-0.07168438
124	0xbe31ef06	-0.17376336
125	0x3bdba773	0.006703311
126	0xbdc4a23b	-0.096012555
127	0xbd8ce54a	-0.06879671
128	0x3dc242ce	0.09485398
129	0xbdde5eb6	-0.108579084
130	0xbdb81c88	-0.08989817
131	0xbdb141f2	-0.08655156
132	0x3da014db	0.07816478
133	0x3de3cfe7	0.111236386
134	0xbd272e77	-0.040815797
135	0x3d3ca9ec	0.046060488
136	0x3d0ebc93	0.034847807
137	0x3d88c3cb	0.066779695
138	0x3d97867a	0.07398696
139	0x3d729504	0.059224144
140	0x3c5becff	0.0134232035
141	0xbdcede68	-0.101010144
142	0x3cd385b2	0.025820587
143	0x3d8fdf13	0.0702497
144	0xbe16fcb8	-0.14744842
145	0xbbd5b678	-0.006521996
146	0xbe0d1358	-0.1377691
147	0xbde7df88	-0.11321932
148	0xbc1d18ad	-0.009588403
149	0xbd9f021a	-0.07764073
150	0x3da1e54b	0.07905062
151	0x3d8e2cab	0.069421135
152	0xbe101204	-0.14069372
153	0xbcf8a224	-0.030350752
154	0x3e0233df	0.127151
155	0x3d5c9b74	0.05385919
156	0xbdddb1b5	-0.108249106
157	0xbd5b2605	-0.053503055
158	0x3c8b8448	0.01703085
159	0x3dc842b5	0.09778348
160	0x3e073ddf	0.13207196
161	0xbe0c53e5	-0.13703878
162	0xbcdbab8a	-0.026815195
163	0x3e0fa59d	0.1402802
164	0xbdeb6912	-0.1149465
165	0x3db32488	0.08747202
166	0xbdefa970	-0.117022395
167	0xbe226b42	-0.15861228
168	0xbe15d284	-0.14631087
169	0xbd7207d5	-0.0590895
170	0xbd7251a7	-0.0591599
171	0xbd23c447	-0.039982107
172	0xbd1582f3	-0.036501836
173	0x3d85debe	0.06536625
174	0xbdc8a159	-0.097963996
175	0xbe35d7ea	-0.17758146
176	0x3df222ee	0.118230686
177	0x3db71b68	0.08940774
178	0x3d724c0d	0.05915456
179	0x3bd7dced	0.0065876157
180	0xbdfb0de9	-0.122585125
181	0xbd07d92f	-0.033166107
182	0xbdd6ecff	-0.10494422
183	0xbdd5a78b	-0.10432347
184	0xbd66a7b2	-0.05631227
185	0x3ddd0fe3	0.10794046
186	0x3db3f87d	0.0878763
187	0xbdfea460	-0.12433696
188	0xbdc8f416	-0.09812181
189	0xbd5fe5a4	-0.05466236
190	0x3dcddfaf	0.1005243
191	0x3dceeeaa	0.10104115
192	0x3e038796	0.1284469
193	0x3d8805bc	0.06641719
194	0xbe1bb1c7	-0.15204535
195	0x3bcdedff	0.006284475
196	0x3d9729f4	0.07381049
197	0xbd08f602	-0.033437736
198	0x3db93fd1	0.09045375
199	0xbe2a7d23	-0.16649298
200	0xbdfda388	-0.12384707
201	0xbd9ada4e	-0.075611696
202	0xbdc1e2e4	-0.09467104
203	0xbe2d8a49	-0.16947283
204	0xbe179117	-0.14801441
205	0xbcfa1cd7	-0.03053133
206	0xbe41d68f	-0.18929504
207	0xbd4a1689	-0.049337897
208	0x3cecdbb7	0.028913362
209	0x3db32cf7	0.08748811
210	0x3e3705fe	0.1787338
211	0x3d8e43ec	0.06946549
212	0xbdaa97cf	-0.083297364
213	0xbc143a40	-0.009047091
214	0x3ddd4d0d	0.10805712
215	0x3df9245c	0.12165138
216	0x3e00b24e	0.12568018
217	0xbd01fe47	-0.03173664
218	0x3db9cde9	0.09072477
219	0x3ba661d4	0.00507758
220	0x3d73942d	0.059467483
221	0x3d8fc412	0.07019819
222	0x3d28353b	0.04106639
223	0xbd7afb82	-0.061275013
224	0x3d6887f7	0.05677029
225	0xbdaee5d9	-0.08539934
226	0xbe291a41	-0.16513921
227	0xbbb9a0e4	-0.0056649316
228	0xbdda77dc	-0.106673926
229	0xbdc9716d	-0.098360874
230	0xbdb5e068	-0.08880693
231	0xbe05c9f5	-0.13065322
232	0xbdadd685	-0.08488182
233	0x3db8c2ba	0.09021516
234	0xbe0c7854	-0.13717777
235	0xbe466cca	-0.19377437
236	0x3d9a206c	0.07525715
237	0xbd93c169	-0.072146244
238	0xbe1f6965	-0.15567549
239	0xbe29329d	-0.16523214
240	0xbdd0322c	-0.101658195
241	0x3c1e0dcc	0.009646844
242	0xbd867e38	-0.06567043
243	0xbcbf369a	-0.023341466
244	0xbd6dd950	-0.058068573
245	0xbdc5094f	-0.09620916
246	0x3d5e1077	0.05421492
247	0xbdd4fdcf	-0.10399973
248	0x3daa8a11	0.08327115
249	0xbde98f27	-0.11404257
250	0xbd1ce1ac	-0.038301155
251	0xbe3e7670	-0.18599868
252	0x3cb16458	0.021654293
253	0xbd8972a4	-0.06711319
254	0xbc4346d7	-0.011918745
255	0x3e283492	0.16426304

sequential/conv1d_1/Conv1D f4 [32, 1, 3, 32]
0	0x3de6cabc	0.11269137
1	0x3e5c1b90	0.2149489
2	0xbc7b27af	-0.0153292855
3	0xbda2d0d4	-0.07949987
4	0x3e2ae3a7	0.16688405
5	0x3e084a33	0.13309555
6	0x3b0834a5	0.0020783332
7	0xbdcf4100	-0.1011982
8	0x3e064b9f	0.13114785
9	0xbcf9aa81	-0.03047681
10	0xbdc9403e	-0.09826706
11	0xbd83dd69	-0.06438715
12	0xbd8adbd8	-0.06780213
13	0xbd8e6200	-0.06952286
14	0x3d1b2165	0.037873644
15	0x3e1868d7	0.14883743
16	0x3e40adb1	0.18816258
17	0x3da0d6e9	0.07853491
18	0xbe12c570	-0.14333129
19	0xbe2f5d6f	-0.17125486
20	0xbd89fadd	-0.067373015
21	0xbe117ca2	-0.142077
22	0x3ddcc24e	0.10779248
23	0x3e4a5a34	0.19760972
24	0xbd2af464	-0.041736975
25	0xbdecd08d	-0.115632154
26	0x3dbb108e	0.09134017
27	0x3d70f026	0.058822773
28	0xbe0021bb	-0.12512867
29	0x3c5b064a	0.013368199
30	0xbe0c1846	-0.13681135
31	0xbda38d48	-0.07985932
32	0x3def0a71	0.116719134
33	0x3dbba95e	0.091631636
34	0x3d793539	0.060841773
35	0x3de70165	0.11279563
36	0x3e037f05	0.12841423
37	0xbbf53899	-0.0074835536
38	0xbe1d5cce	-0.15367433
39	0xbd3e29c2	-0.046426542
40	0x3e45c6ba	0.1931409
41	0xbda0caa8	-0.078511536
42	0xbda60ac9	-0.08107526
43	0x3cd43515	0.025904218
44	0x3cdc4ea9	0.026892977
45	0xbe1403bf	-0.14454554
46	0x3da5222c	0.080631584
47	0xbdf3424d	-0.1187788
48	0xbd619d20	-0.055081487
49	0xbcdac4db	-0.026705196
50	0xbda029dc	-0.07820484
51	0xbdbd0705	-0.092298545
52	0xbd99d72d	-0.07511745
53	0xbe09cc99	-0.13456954
54	0xbd447c87	-0.04797032
55	0x3e429754	0.1900304
56	0x3e1841b9	0.14868821
57	0x3e181300	0.14850998
58	0xbd78011c	-0.060547933
59	0xbc86a8c9	-0.016437905
60	0xbd8e8217	-0.069584064
61	0xbdb22ddf	-0.087001555
62	0xbdbd3286	-0.09238152
63	0x3e168455	0.14698918
64	0xbe3b3f3c	-0.18285841
65	0x3e1d6f49	0.15374483
66	0xbd940cdd	-0.07229016
67	0x3dae1167	0.08499413
68	0x3a0f1096	0.00054574886
69	0x3d357b7f	0.04430723
70	0xbd787f76	-0.06066843
71	0x3e16b0b5	0.14715846
72	0xbe07e3c7	-0.13270484
73	0x3e020d55	0.12700398
74	0xbd8c0758	-0.06837338
75	0x3dca9a07	0.0989266
76	0x3d8c1f90	0.068419576
77	0xbe3e990d	-0.18613072
78	0xbda64a91	-0.08119691
79	0xbd9467b4	-0.07246342
80	0x3bc2e729	0.0059479666
81	0xbce335e4	-0.027735658
82	0x3e2b1012	0.16705349
83	0x3d0db0a8	0.0345923
84	0x3e2a7d8f	0.1664946
85	0xbd956dab	-0.07296308
86	0x3e2768d5	0.16348584
87	0x3df2d8b1	0.11857737
88	0xbd7cf141	-0.061753515
89	0xbddfa136	-0.109194204
90	0x3dcc0674	0.09962168
91	0x3c9c8a03	0.019108778
92	0xbdfbdacc	-0.122975916
93	0x3e289408	0.1646272
94	0x3e2e8f6d	0.170469
95	0xbe4b4f23	-0.19854407
96	0x3db694f2	0.08915128
97	0xbb048b42	-0.0020224606
98	0xbd8aaeb9	-0.06771607
99	0xbd491864	-0.049095526
100	0x3e0aaba9	0.13542046
101	0x3c25eb8b	0.010126959
102	0xbe29c2c9	-0.16578211
103	0x3bf9e06a	0.007625629
104	0xbdc85bfe	-0.09783171
105	0x3d5b64b1	0.053562824
106	0xbda44e7b	-0.080227815
107	0x3db9a338	0.09064335
108	0x3c8a20ea	0.016861398
109	0x3e0b3b8d	0.13596936
110	0x3d052ff0	0.03251642
111	0x3d899778	0.067183435
112	0xbced4cc6	-0.028967272
113	0x3d300ae5	0.04297914
114	0x3d70fe4c	0.058836266
115	0xbd236b4d	-0.039897252
116	0x3c9ef3bd	0.019403333
117	0xbbf59400	-0.0074944496
118	0xbcaa6930	-0.02080211
119	0xbbe15135	-0.0068761357
120	0xbcbce622	-0.023058955
121	0x3e02a9bf	0.12760065
122	0xbd13ee01	-0.03611565
123	0xbd92137c	-0.071326226
124	0xbd3d1075	-0.046158273
125	0xbde86d7e	-0.11349009
126	0xbd17611a	-0.036957838
127	0xbe29d308	-0.16584408
128	0x3e305956	0.17221579
129	0xbd744bd1	-0.059642617
130	0xbda0c172	-0.07849397
131	0xbd48ee44	-0.049055353
132	0x3d1bff35	0.03808518
133	0xbd869db5	-0.06573049
134	0x3ca4f7d5	0.020137707
135	0x3e28ad62	0.1647239
136	0xbe03e8db	-0.12881796
137	0x3e047d96	0.12938532
138	0xbd4731c2	-0.048631437
139	0x3dbd697b	0.092486344
140	0x3d9d0b5a	0.07668181
141	0x3dfe2157	0.12408703
142	0xbd6ee1a3	-0.058320653
143	0xbe02da36	-0.12778553
144	0xbe3d2079	-0.18469419
145	0xbd32016e	-0.043458395
146	0x3e4910ce	0.19635317
147	0x3c87ec73	0.01659224
148	0x3c92e0c0	0.017929435
149	0x3dfc42b7	0.12317412
150	0x3e4d803e	0.20068452
151	0xbd189770	-0.037253797
152	0xbd932137	-0.071840696
153	0x3e03d1a9	0.12872948
154	0xbe0018b7	-0.12509428
155	0x3c8a9a87	0.016919388
156	0xbda0dc52	-0.07854523
157	0xbcdcb080	-0.02693963
158	0xbbb2cce9	-0.005456556
159	0x3e1cc908	0.15311062
160	0x3e12b023	0.14325003
161	0xbd5c04af	-0.053715404
162	0xbca7b104	-0.02047015
163	0xbd3e1b77	-0.04641291
164	0xbe0b881a	-0.13626137
165	0x3e23151d	0.15926023
166	0x3e2f63aa	0.17127863
167	0x3db90996	0.090350315
168	0xbd620860	-0.05518377
169	0xbe00ed1a	-0.12590447
170	0x3b05080a	0.002029898
171	0x3c248a06	0.010042673
172	0x3d99d16a	0.07510646
173	0x3dbfcea7	0.09365588
174	0x3d9fc594	0.07801357
175	0xbe135fba	-0.14391986
176	0xbdf332bb	-0.118749104
177	0x3db68ded	0.08913789
178	0xbda0f7fd	-0.078598
179	0x3e4064c6	0.18788442
180	0xbd8a745a	-0.067604735
181	0xbd4fbf2b	-0.05071942
182	0xbc0af435	-0.008481075
183	0x3d669b9c	0.056300744
184	0xbdab2d72	-0.083582774
185	0x3d7f82ab	0.062380474
186	0x3e2c8a6b	0.16849677
187	0x3e01f85a	0.12692395
188	0x3d59bbbb	0.05315755
189	0x3e1f3a66	0.15549621
190	0xbdb4ecfa	-0.08834262
191	0xbe171cc0	-0.14757061
192	0x3b2088ac	0.0024495525
193	0xbcf7cc89	-0.030248897
194	0x3b8d968e	0.004320926
195	0x3da91fdc	0.0825803
196	0xbdcc5704	-0.099775344
197	0x3d8f28eb	0.06990226
198	0x3d9f9121	0.07791353
199	0xbe0b48ef	-0.1360204
200	0xbe086c5d	-0.13322587
201	0xbe3152a7	-0.17316686
202	0x3cd72122	0.026260916
203	0xbdf5aa14	-0.119953305
204	0x3da919ca	0.08256872
205	0xbd83b3dc	-0.0643079
206	0xbdff0d9b	-0.12453767
207	0x3db36708	0.08759886
208	0x3d39cd68	0.045361906
209	0x3df18755	0.11793391
210	0x3d641468	0.055683523
211	0xbcb54464	-0.022127338
212	0xbd1b237c	-0.037875637
213	0xbd3fd95e	-0.046838157
214	0xbd4d27df	-0.050086852
215	0xbdc3a453	-0.09552827
216	0xbda27acd	-0.07933579
217	0x3d0f39e7	0.03496733
218	0x3d5989f8	0.053110093
219	0x3df499f2	0.11943425
220	0x3e4886ab	0.19582622
221	0x3e12457f	0.14284323
222	0xbd2ca9e2	-0.0421542
223	0xbcfdee90	-0.030997545
224	0xbd714412	-0.058902808
225	0x3bf27c88	0.007400099
226	0x3c8b4584	0.017000921
227	0xbd0c97f3	-0.034324598
228	0x3c303112	0.010753887
229	0xbe0248b0	-0.1272304
230	0xbcead285	-0.028664837
231	0xbde9a710	-0.11408818
232	0xbdaf95c6	-0.08573489
233	0xbd966eeb	-0.07345375
234	0x3db5eba4	0.088828355
235	0x3e381e0a	0.17980209
236	0x3dfbae6c	0.12289128
237	0x3da2e18f	0.07953178
238	0x3d6f57a1	0.05843318
239	0x3de40e3f	0.1113553
240	0x3e0faf72	0.14031771
241	0x3cb82052	0.022476349
242	0x3e0acba3	0.13554244
243	0xbbfc889f	-0.007706716
244	0xbe3036ca	-0.172084
245	0x3e3e9b7f	0.18614005
246	0xbd908dcc	-0.070582956
247	0x3e328c9d	0.17436452
248	0xbd4a5f46	-0.049407266
249	0xbded7ca1	-0.11596037
250	0x3d350309	0.044192348
251	0x3e46569c	0.19368976
252	0x3d86576e	0.06559645
253	0x3e2522ac	0.16126508
254	0x3dbab719	0.09116954
255	0x3d87f685	0.06638817

sequential/conv1d_2/Conv1D f4 [64, 1, 3, 32]
0	0xbdc66e80	-0.09689045
1	0x3d08706a	0.03331033
2	0xbdc4aeef	-0.096036784
3	0xbbce4ef8	-0.006296035
4	0xbc7665ac	-0.015038889
5	0xbd806475	-0.06269161
6	0xbd94b7cc	-0.07261619
7	0x394b733e	0.0001940252
8	0xbcb549a6	-0.022129845
9	0xbdadcd32	-0.084864035
10	0x3d9c5486	0.07633309
11	0xbd6f2ff1	-0.05839533
12	0xbe24464c	-0.16042441
13	0x3d1d0d81	0.038342956
14	0xbd21bab4	-0.039484695
15	0xba772d72	-0.0009429074
16	0x3b577e54	0.0032881694
17	0xbd855e80	-0.06512165
18	0xbd0b1326	-0.03395381
19	0xbe15ff0d	-0.14648075
20	0xbd04492e	-0.032296352
21	0xbc9e9a35	-0.019360641
22	0x3de1e571	0.110300906
23	0xbdd4c45c	-0.10389015
24	0xbda6e186	-0.08148484
25	0xbc9a1063	-0.018806642
26	0x3d4668d6	0.048439823
27	0x3b01b98a	0.0019794428
28	0xbddd54fc	-0.10807225
29	0x3d4aee59	0.049543712
30	0x3dbb4275	0.09143535
31	0x3debadd4	0.115077645
32	0x3d8e2a3f	0.069416516
33	0x3c94bfd9	0.018157886
34	0xbd91260a	-0.070873335
35	0xba05392b	-0.0005082066
36	0xbe0e8c88	-0.13920796
37	0xbcfcf339	-0.030877696
38	0xbddb16ff	-0.106977455
39	0x3cfe320d	0.031029725
40	0x3d56ec5b	0.0524715
41	0x3e05ffd9	0.1308588
42	0xbda3a8df	-0.07991194
43	0x3dbd9bc6	0.09258227
44	0x3e142fc0	0.1447134
45	0x3e12720b	0.14301316
46	0xbd4e94da	-0.050434925
47	0xbccc1b33	-0.024915313
48	0x3da43527	0.080179505
49	0xbde09968	-0.1096676
50	0xbd63bd8f	-0.0556007
51	0xbcfea6c6	-0.031085383
52	0x3d9d42b9	0.07678742
53	0xbdde44a4	-0.10852936
54	0x3da2ac54	0.07943025
55	0x3d5ecaf3	0.054392766
56	0xbdb144a8	-0.08655673
57	0x3badd150	0.005304493
58	0x3e2604ed	0.16212817
59	0x3d93a060	0.072083235
60	0xbdc1b464	-0.09458235
61	0x3c5fe622	0.013665708
62	0xbe1c6804	-0.15274054
63	0xbcf446ac	-0.029818855
64	0x3c88df35	0.016707996
65	0x3c51e0b6	0.012809923
66	0xbd7f7b5e	-0.06237351
67	0x3d872f6f	0.06600844
68	0xbd36660d	-0.044530917
69	0x3deb0e57	0.114773445
70	0xbca9ed2e	-0.020742979
71	0x3e108341	0.1411257
72	0xbcbc4be8	-0.022985414
73	0xbd1cfb92	-0.038325854
74	0x3e01219e	0.1261048
75	0x3d9600bf	0.07324361
76	0x3d589b4e	0.052882485
77	0x3d86b1f6	0.06576912
78	0xbcb51bdf	-0.022108017
79	0x3deb9466	0.11502914
80	0xbdacdb23	-0.084402345
81	0x3d13df30	0.03610152
82	0xbdd1fd36	-0.10253374
83	0x3e19238f	0.14954971
84	0x3e156ab4	0.14591485
85	0xbdd44f5e	-0.103667006
86	0xbe04ead4	-0.12980205
87	0xbdc7889a	-0.097428516
88	0xbd0b3256	-0.03398355
89	0x3cb3c258	0.021943256
90	0x3cb75709	0.022380369
91	0x3dada338	0.08478397
92	0x3d060415	0.032718737
93	0xbdbfc496	-0.09363668
94	0x3df2328f	0.118260495
95	0xbb295d39	-0.0025842919
96	0xbd27fc9f	-0.041012403
97	0xbcb9ec41	-0.022695662
98	0xbdae467d	-0.08509538
99	0x3cdbc019	0.026824998
100	0xbdc338d9	-0.09532327
101	0x3d50c5e6	0.05096998
102	0xbdbb08dc	-0.09132549
103	0xbd56c165	-0.05243053
104	0x3ddee149	0.108828135
105	0xbe0d2b17	-0.13785969
106	0xbd18fd0c	-0.0373507
107	0x3d22f1fd	0.03978156
108	0x3e2e0d4e	0.16997263
109	0xbdc03a2e	-0.09386097
110	0x3e103538	0.14082801
111	0xbd8f81ee	-0.07007204
112	0xbdbb574d	-0.09147511
113	0xbd84c876	-0.064835474
114	0xbdbd252d	-0.09235606
115	0x3e329eba	0.17443362
116	0xbd524fd9	-0.05134568
117	0x3d187962	0.037225135
118	0xbb48dd25	-0.003064939
119	0x3db12a15	0.08650605
120	0xbdc26446	-0.09491782
121	0xbc940611	-0.018069299
122	0xbc96fcb4	-0.018431045
123	0xbdc905e3	-0.09815576
124	0xbe028a30	-0.12748027
125	0x3e050a4a	0.12992206
126	0xbd96ea51	-0.07368911
127	0xbd51777c	-0.05113934
128	0x3daa56ed	0.08317361
129	0xbdade884	-0.084916145
130	0x3c332a81	0.010935427
131	0xbc0fec4a	-0.008784363
132	0xbe0bfceb	-0.136707
133	0x3e204698	0.1565193
134	0xbde7a294	-0.11310306
135	0x3d3e7762	0.04650057
136	0x3cb8959f	0.022532282
137	0xbd6ddff9	-0.058074925
138	0x3bfc54ec	0.007700553
139	0x3d2dc069	0.042419825
140	0xbdc7dbb9	-0.09758706
141	0x3e21c297	0.15796886
142	0x3d4ea43b	0.05044959
143	0xbd8993b6	-0.06717627
144	0xbd9db646	-0.077007815
145	0x3dea41d7	0.11438339
146	0xbd11bbee	-0.035579614
147	0xbd8c6411	-0.06855024
148	0xbadf11e8	-0.0017018886
149	0xbdc4cff5	-0.09609977
150	0x3dbd801f	0.09252953
151	0xbd703713	-0.058646273
152	0x3db5c6dd	0.08875821
153	0xbdc17c89	-0.09447581
154	0x3d3f92cb	0.046770852
155	0xbdce4419	-0.10071582
156	0x3d9dfe59	0.077145286
157	0x3d9a1dca	0.07525213
158	0x3d1373c0	0.03599906
159	0xbd8c1569	-0.06840021
160	0x3df61fb6	0.12017767
161	0xbd835d11	-0.064142354
162	0x3c4907c5	0.012269919
163	0xbddcd0ea	-0.10782035
164	0xbd4cf884	-0.05004169
165	0x3da21658	0.07914418
166	0xbe0aa28a	-0.13538566
167	0xbdc32230	-0.09528005
168	0xbd8b9dbb	-0.06817194
169	0xbdf7ae4e	-0.12093793
170	0xbd4bc395	-0.04974707
171	0x3d61c1e5	0.055116553
172	0x3bddc420	0.0067677647
173	0xbda0ce93	-0.07851901
174	0x3d92446f	0.07141959
175	0xbdf77f1a	-0.120847896
176	0xbdce6d5f	-0.10079455
177	0xbda39d39	-0.07988972
178	0xbdf80a24	-0.12111309
179	0x3ddb3a82	0.10704519
180	0x3d002320	0.031283498
181	0xbd3963b4	-0.0452611
182	0x3cd8d4cd	0.026468659
183	0x3dad016c	0.08447537
184	0x3e036a6a	0.12833562
185	0x3d79bea8	0.06097284
186	0x3e07f036	0.13275227
187	0xbd4a3dd8	-0.049375385
188	0x3ca1e315	0.019761601
189	0xbdefbb27	-0.11705618
190	0x3cf4d222	0.029885355
191	0x3d20a544	0.03922011
192	0xbcdf1321	-0.027230801
193	0xbd2f2b34	-0.04276581
194	0xbddca264	-0.10773161
195	0x3dc241e8	0.09485227
196	0x3daac05c	0.08337471
197	0xbd0e1ee6	-0.034697436
198	0x3d2a24a9	0.041538868
199	0xbe087783	-0.1332684
200	0x3ba215f9	0.004946467
201	0xbe00d1ba	-0.12580004
202	0xbdf31812	-0.118698254
203	0xbe1a4987	-0.15067111
204	0xbdd3e4bb	-0.10346361
205	0x3dc538e7	0.09629994
206	0xbdc617d7	-0.09672516
207	0xbdccae6c	-0.09994206
208	0x3e0c328d	0.13691159
209	0xbd886dad	-0.06661544
210	0xbdeb94db	-0.11503001
211	0xbd6ea2c6	-0.0582607
212	0x3e073eb3	0.13207512
213	0xbd657b36	-0.056025706
214	0x3ce56577	0.028002484
215	0x3d0c753f	0.034291502
216	0x3dd9f269	0.10641939
217	0xbd6ee727	-0.058325913
218	0xbdf713d6	-0.1206433
219	0x3d413a9f	0.047175046
220	0x3e0e514e	0.13898203
221	0x3c7e7419	0.0155306095
222	0xbd67979c	-0.05654107
223	0x3ce53fe4	0.027984567
224	0xbe1c5ccf	-0.15269779
225	0xbd287c22	-0.041134007
226	0xbdab938e	-0.08377753
227	0xbd0e55b6	-0.03474971
228	0xbdf45243	-0.11929753
229	0x3ddab89b	0.10679742
230	0xbd61f205	-0.05516245
231	0x3da5a6f3	0.08088484
232	0x3dd07830	0.10179174
233	0xbdb3dc5a	-0.08782263
234	0xbe0366f4	-0.12832242
235	0x3d7aac63	0.061199557
236	0x3ce19a5e	0.027539428
237	0xbd0b6e74	-0.034040883
238	0x3ca81d0d	0.020521665
239	0x3bb57e33	0.0055387258
240	0x3d83ded5	0.06438986
241	0x3c9b9e5b	0.018996408
242	0xbdc62e34	-0.09676781
243	0x3dfbafc9	0.12289388
244	0xbc084483	-0.008317116
245	0x3d104dc0	0.0352304
246	0xbd1818c5	-0.037132997
247	0x3c8149a7	0.01578219
248	0xbde73375	-0.112891115
249	0xbdcff0c2	-0.10153343
250	0xbda72658	-0.0816161
251	0xbdcab323	-0.09897449
252	0xbdba3a1b	-0.09093114
253	0x3deecd76	0.11660282
254	0x3d222da3	0.039594304
255	0x3db3a91f	0.08772492
